assets/my_model/plantVillage_model.tflite (tflite, 810664 bytes, 76 tensors)

arith.constant3 f2 [15]
00000000: 1490 26a4 eca5 17a1 1da4 4b0c 8925 1425
00000010: bf94 c524 b689 5a20 651d 27a6 66a3
-0.000498 -0.0162 -0.02313 -0.00994 -0.01607 0.000262 0.02162 0.01984
-0.001159 0.01863 -0.0001743 0.0085 0.00527 -0.02403 -0.01445

arith.constant4 f2 [15, 576]
00000000: bba3 4f2a 5329 a22d 4b2b 05a2 262d 882b
00000010: 6225 462c 9c2a 0022 392a 4bac 942d d7aa
00000020: 0e2d 7da5 622e d5ad 42a9 df29 a1ab 66ac
00000030: 708d 22ac 732c 80ad b2a9 a0ac 4cae 31a9
00000040: 31a9 ce2b 64ac b82e 8309 0fac 2b1f 6921
00000050: 8a1e 7828 a02d 24ac 74a8 ea2c 38a2 a529
00000060: 7aab 842a bcae 26ad 6ca3 daac c8a8 faa8
00000070: b42a 372d 10af e7aa 90a9 402a f423 e925
00000080: 5b2d 72a9 f426 102e ba2d 542c d2ac 7bac
00000090: 2d29 d72e 5da7 27ad 9c20 ee1a 1c2c 48ae
000000a0: e31c f8a9 f3ad 5aaf 33aa 971c 41ab c62d
000000b0: c326 e22c 4a2d 4dae 5e1f 4728 e12f 2328
000000c0: 07ab 91a7 352b 522f a42d 55a9 9425 84a7
000000d0: 1aa0 c7a8 efa7 7023 392c 80ae 112a c7ad
000000e0: 2c2e 0aa9 6ca8 21ae 28a7 c125 9aaf c52b
000000f0: 922b ea2d 59a4 9da9 512e c228 99af 80a5
00000100: fb2e 252e 7fad 3d2d 261a bdae 4aac abac
00000110: 4fa3 dd2e daa7 bbad ddad 1120 f526 26ab
00000120: 6628 d8ac 54ac a628 d4ac 4315 efad 79a9
00000130: bdad aaac 35aa 702e 3b2e 6dac e62c 13ae
00000140: d3ac 26a5 66a5 c2a8 e52e b419 ee28 28af
00000150: ddad 0920 ba2b acac 362d edad 8a2f e52d
00000160: 03ad e3a7 7aa7 382a 7c2d 6021 6f2d cc25
00000170: b424 6b2e b1ad c22d 76af e7ad b7ab 59a5
00000180: dfac 7eac 84ad f8a7 cba0 aa97 5618 8d27
00000190: aea9 b5ac b62c dea0 e6ac 61af ffaa 0b23
000001a0: 8cab 96ad be2d 1b2b ea26 c8aa 8226 76a7
000001b0: 6e2d f2a8 6bae dd27 a12d 1d2c 132d 14ae
000001c0: 572e 2f27 c3ad b2ab 5eaf 8325 db2c 1020
000001d0: 23a0 122b 9729 baa2 f7a9 42ad a5a8 3a2e
000001e0: 21a9 202e a9ae 059d 35ac 84ad 5cad 3424
000001f0: a1a4 47a8 ca2a 1eaf 2d2a 1c29 5622 652a
-0.0151 0.0493 0.0416 0.088 0.05698 -0.01176 0.08044 0.05884
0.02103 0.0668 0.05164 0.01172 0.0486 -0.0671 0.08716 -0.05344
0.079 -0.02144 0.09973 -0.0911 -0.04108 0.04587 -0.0596 -0.0687
-0.0003319 -0.0646 0.0695 -0.08594 -0.0445 -0.07227 -0.0984 -0.04056
-0.04056 0.06097 -0.0686 0.105 0.0001682 -0.0634 0.007 0.01057
0.006386 0.0349 0.0879 -0.0647 -0.0348 0.0768 -0.012146 0.0441
-0.0584 0.0509 -0.1052 -0.08044 -0.014496 -0.0758 -0.03735 -0.03888
0.05237 0.0815 -0.11035 -0.05392 -0.04346 0.04883 0.01553 0.02309
0.0837 -0.04254 0.02716 0.0947 0.0895 0.0676 -0.0753 -0.07
0.04044 0.1069 -0.02876 -0.0805 0.009 0.003384 0.0642 -0.09814
0.004772 -0.04663 -0.09296 -0.11487 -0.04843 0.004482 -0.05667 0.0902
0.02641 0.0763 0.08264 -0.09845 0.007195 0.03342 0.1231 0.03232
-0.0549 -0.02956 0.0563 0.1144 0.08813 -0.04166 0.02179 -0.02936
-0.00801 -0.03732 -0.03099 0.01453 0.066 -0.10156 0.0474 -0.0903
0.09644 -0.03937 -0.03455 -0.09576 -0.02795 0.02248 -0.1188 0.0607
0.05914 0.0924 -0.01698 -0.04385 0.0987 0.03717 -0.1187 -0.02148
0.1091 0.096 -0.0859 0.08185 0.003002 -0.1053 -0.067 -0.07294
-0.014275 0.10724 -0.03067 -0.08954 -0.0916 0.00794 0.02718 -0.05585
0.03436 -0.0757 -0.0676 0.03632 -0.07544 0.001285 -0.0927 -0.04276
-0.08966 -0.0729 -0.0485 0.1006 0.09735 -0.06915 0.07654 -0.0949
-0.0754 -0.02011 -0.02109 -0.03717 0.1077 0.002785 0.0385 -0.1118
-0.0916 0.00788 0.06036 -0.073 0.0814 -0.0926 0.1178 0.0921
-0.0783 -0.0308 -0.0292 0.04858 0.0857 0.0105 0.0849 0.02264
0.01837 0.1003 -0.0889 0.08997 -0.1166 -0.0922 -0.06027 -0.02089
-0.0761 -0.0702 -0.0862 -0.03113 -0.00936 -0.001871 0.002117 0.0295
-0.04437 -0.07355 0.0736 -0.00951 -0.07654 -0.1153 -0.05466 0.013756
-0.05896 -0.0873 0.0897 0.0555 0.02701 -0.05298 0.02542 -0.02914
0.08484 -0.03864 -0.1003 0.03072 0.08795 0.0643 0.0793 -0.095
0.09906 0.02806 -0.09 -0.06012 -0.1151 0.02153 0.07587 0.007935
-0.00808 0.05524 0.04367 -0.01314 -0.0466 -0.08215 -0.0363 0.0973
-0.04007 0.0957 -0.10406 -0.0049 -0.06573 -0.0862 -0.08374 0.01642
-0.01808 -0.03342 0.05304 -0.1112 0.04825 0.03992 0.012375 0.04996

arith.constant5 f2 [16, 3, 3, 3]
00000000: 36b1 1f3c 23bb 2dae 4036 5ab5 a0b2 6a3b
00000010: e3b9 4127 b53d 6bbe 2726 f138 0cba 6faf
00000020: 5a3d 45bd 02b2 0239 65b8 0ead 4a31 cdb0
00000030: 8fb0 9b38 d1b7 0080 0080 0080 0080 0080
00000040: 0080 0000 0080 0080 0080 0080 0080 0080
00000050: 0080 0080 0000 0080 0000 0000 0080 0080
00000060: 0000 0080 0080 0000 0080 0000 9132 1035
00000070: 3c2f e334 ff38 7931 5c32 1836 8e2f e62d
00000080: 4132 9b2b c733 1138 8d30 4631 c734 cb2d
00000090: a429 4f23 2b28 ae30 0d32 db2c af2f c42e
000000a0: dd2b 4cb8 69bb 2db2 23b1 57ae 15a8 e335
000000b0: 523a 4332 a9b8 f4ba 97b3 ee34 1239 0130
000000c0: d33a a03d 8a35 8d2d 8134 6826 1d39 863c
000000d0: 2735 a634 8834 dc32 9132 9d32 2220 eb2c
000000e0: bf32 362b e92e 532f 801e f038 4c38 27a4
000000f0: 2d36 4237 5727 1136 5e35 cba6 4036 0036
00000100: 1030 0b34 3834 532d dc32 8d30 542b f0b8
00000110: ff33 df35 72ba c335 1f38 66b9 2533 5036
00000120: c4b5 962e 2f34 75b8 ef31 7135 a0b4 5530
00000130: a231 99b3 cea6 2034 74b5 122e dd32 e2ac
00000140: b62f bd21 8ab1 c924 c5b2 4330 d431 edac
00000150: 4231 403a 97aa 1230 2736 4c2f 6239 c23a
00000160: 7637 7438 443c f736 7ab7 1bb6 d7b4 4233
00000170: 0831 2132 8334 5d38 d832 0080 0080 0080
00000180: 0080 0080 0080 0080 0080 0080 0080 0080
00000190: 0080 0080 0080 0080 0080 0080 0080 0000
000001a0: 0080 0000 0000 0080 0000 0000 0000 0000
000001b0: 81b9 92bc a7b4 d9bc 35c0 d0b8 2ab9 78bc
000001c0: 93b5 4e3c 3d40 5f38 a53e f842 4d3b ea3a
000001d0: 423f cb37 9cb5 afbb eab1 77b8 0dbe 37b5
000001e0: 6eb3 7ab9 45b0 42c1 a140 8c3c 0db8 98b7
000001f0: 8536 c8c6 39c5 a8bf bcb0 8537 fe2e af38
-0.1628 1.03 -0.892 -0.0965 0.3906 -0.3345 -0.207 0.927
-0.736 0.02834 1.427 -1.6045 0.02403 0.6177 -0.756 -0.11615
1.338 -1.317 -0.1877 0.626 -0.5493 -0.079 0.1653 -0.15
-0.1425 0.5757 -0.4885 -0.0 -0.0 -0.0 -0.0 -0.0
-0.0 0.0 -0.0 -0.0 -0.0 -0.0 -0.0 -0.0
-0.0 -0.0 0.0 -0.0 0.0 0.0 -0.0 -0.0
0.0 -0.0 -0.0 0.0 -0.0 0.0 0.2052 0.3164
0.11304 0.3054 0.6245 0.171 0.1987 0.3809 0.11804 0.09216
0.1954 0.05942 0.243 0.5083 0.1422 0.1648 0.2986 0.0905
0.04407 0.014275 0.03256 0.1462 0.1891 0.07587 0.12006 0.1057
0.06143 -0.537 -0.9263 -0.193 -0.1605 -0.09906 -0.0319 0.368
0.79 0.1957 -0.5825 -0.869 -0.2372 0.308 0.634 0.1251
0.853 1.406 0.3462 0.08673 0.2815 0.02502 0.639 1.131
0.322 0.2905 0.2832 0.2144 0.2052 0.2067 0.00807 0.07684
0.2108 0.05634 0.108 0.11444 0.006348 0.617 0.537 -0.01622
0.386 0.4536 0.02867 0.3792 0.3354 -0.02654 0.3906 0.375
0.127 0.2527 0.2637 0.0832 0.2144 0.1422 0.05725 -0.617
0.2499 0.367 -0.8057 0.36 0.515 -0.675 0.2233 0.3945
-0.3604 0.1029 0.2615 -0.557 0.1854 0.34 -0.289 0.1354
0.176 -0.2374 -0.02658 0.2578 -0.3408 0.09485 0.2145 -0.0763
0.1205 0.01121 -0.1731 0.01869 -0.2115 0.1332 0.1821 -0.07697
0.1643 0.7812 -0.05148 0.1272 0.3845 0.114 0.673 0.8447
0.4663 0.5566 1.066 0.4353 -0.4673 -0.3816 -0.3025 0.2268
0.1572 0.1915 0.282 0.5454 0.2139 -0.0 -0.0 -0.0
-0.0 -0.0 -0.0 -0.0 -0.0 -0.0 -0.0 -0.0
-0.0 -0.0 -0.0 -0.0 -0.0 -0.0 -0.0 0.0
-0.0 0.0 0.0 -0.0 0.0 0.0 0.0 0.0
-0.688 -1.143 -0.2908 -1.212 -2.104 -0.6016 -0.6455 -1.117
-0.3484 1.076 2.12 0.5464 1.661 3.484 0.9126 0.8643
1.814 0.487 -0.3506 -0.9604 -0.1848 -0.558 -1.513 -0.326
-0.2322 -0.6846 -0.1334 -2.629 2.314 1.137 -0.5063 -0.4746
0.4075 -6.78 -5.223 -1.914 -0.148 0.47 0.10925 0.5854

arith.constant6 f2 [16, 1, 1, 16]
00000000: 71ab a310 d62b d9b9 792b da2e 21bc cb10
00000010: b1b4 f2ac 1bb6 683b 09b9 babb f7b1 2d27
00000020: 70b3 d48d 8cbc de30 9139 2fa7 382c 088e
00000030: cd3b 55ad 8b2c 1ead 36b0 c7b4 94a8 37b6
00000040: a8b7 a38e 6a3d 04aa 2cb0 31a5 e628 da8e
00000050: d737 082b 5fad 872e 70ac 8ba9 1ba9 7fb8
00000060: 7437 2880 12ae 3333 2fb9 2f30 1db0 2280
00000070: 46ba 2f30 eaa2 d69e 7d2f 4731 65b1 0437
00000080: 27b6 ba0f 03b2 7527 1233 c79e 95ba fe0f
00000090: 3f2d 8cab 22b0 8830 9c38 e63f 7aaf f6a9
000000a0: d1b8 230c 06bc 8134 1ea9 71ac 9e31 470c
000000b0: 1fbb 3d2e 77ad 892c 1026 6c25 d92c 5fb8
000000c0: 4da4 878c 24b4 4ebc 04a3 4eaa b635 ae8c
000000d0: 0f24 f033 2c2d 1d28 be36 ab25 1bbc a8ad
000000e0: c533 2490 2eab 4130 9b32 3495 0b35 4990
000000f0: 6d2c 02b4 02c1 623b ba35 312e e420 fb31
00000100: 3bb1 7515 63ab 50b4 14b8 73a7 66b3 a215
00000110: 7aa9 842e 6abc aac0 beb5 b4a8 0ea5 e5b0
00000120: 7bbf fe91 c327 3e29 b7bb b9ab 0ea4 3192
00000130: e127 f938 93ac 9030 f7b4 e025 4920 fe39
00000140: 2ab8 e50a a7b1 1ab3 13bc 912c e832 1d0b
00000150: d2a0 4dbc cf31 84ac 0828 59a6 0c2c 86b9
00000160: 59af b710 061d c0ac 1530 873e bd27 df10
00000170: 5024 6932 1f11 2ba8 53b0 2624 fc1d 63ad
00000180: c1b3 b68d 8c39 e2b0 673b c6a9 c52d e68d
00000190: 56bd 90b2 892c 55af 93b0 6f34 1ea2 7ab6
000001a0: b536 1605 62b5 38b8 4eb3 2c29 1e38 4505
000001b0: 7426 402d ada6 8436 e1bc 423d b530 49a2
000001c0: 069e 7a88 8032 113c f128 eda4 55a8 a288
000001d0: 319c 77b4 5826 efa3 abb6 322f dbbc 11a2
000001e0: 4ab8 4181 3da5 2cb2 143c b629 f033 4981
000001f0: 79a5 a1b7 0229 fdad cdaa eaa8 f927 793e
-0.05814 0.000566 0.06122 -0.731 0.05838 0.10706 -1.032 0.000585
-0.2932 -0.0773 -0.3816 0.926 -0.6294 -0.966 -0.1864 0.02803
-0.2324 -0.0003557 -1.137 0.1521 0.696 -0.02806 0.0659 -0.000368
0.975 -0.0833 0.071 -0.07996 -0.1316 -0.2986 -0.03577 -0.3884
-0.4785 -0.000405 1.354 -0.047 -0.1304 -0.02028 0.03827 -0.0004182
0.49 0.05493 -0.0839 0.102 -0.06934 -0.0433 -0.0399 -0.562
0.4658 -2.4e-06 -0.09485 0.225 -0.648 0.1307 -0.1285 -2e-06
-0.784 0.1307 -0.013504 -0.006676 0.117 0.1649 -0.1686 0.4385
-0.3845 0.0004716 -0.1879 0.02913 0.221 -0.00662 -0.8228 0.0004878
0.082 -0.05896 -0.1292 0.1416 0.576 1.975 -0.1168 -0.04657
-0.602 0.0002525 -1.006 0.2815 -0.03998 -0.0694 0.1755 0.000261
-0.89 0.0975 -0.0854 0.07086 0.02368 0.02118 0.07574 -0.5464
-0.0168 -0.0002763 -0.2588 -1.076 -0.0137 -0.04926 0.357 -0.0002856
0.01585 0.248 0.0808 0.03214 0.4214 0.02214 -1.026 -0.0884
0.2428 -0.0005054 -0.0561 0.1329 0.2064 -0.00127 0.3152 -0.000523
0.06915 -0.2505 -2.504 0.923 0.358 0.09674 0.00955 0.1869
-0.1635 0.001332 -0.0577 -0.2695 -0.51 -0.0291 -0.2312 0.001375
-0.0428 0.1018 -1.104 -2.332 -0.359 -0.03674 -0.01974 -0.153
-1.87 -0.0007315 0.03032 0.04095 -0.9644 -0.06033 -0.01584 -0.000756
0.03078 0.6216 -0.0715 0.1426 -0.3103 0.02295 0.00837 0.749
-0.5205 0.0002104 -0.1766 -0.2219 -1.019 0.07135 0.2158 0.0002171
-0.009415 -1.075 0.1815 -0.07056 0.0315 -0.0248 0.06323 -0.6904
-0.1148 0.0005755 0.004906 -0.0742 0.1276 1.632 0.03023 0.0005946
0.01685 0.2003 0.000625 -0.03256 -0.1351 0.0162 0.005844 -0.08417
-0.2423 -0.0003486 0.6934 -0.1526 0.9253 -0.0451 0.09015 -0.00036
-1.334 -0.2051 0.07086 -0.11456 -0.143 0.277 -0.01195 -0.4048
0.4192 7.76e-05 -0.3364 -0.5273 -0.2283 0.0404 0.5146 8.04e-05
0.0252 0.08203 -0.02608 0.4072 -1.22 1.314 0.1471 -0.012276
-0.005882 -0.0001366 0.2031 1.017 0.0386 -0.01924 -0.03384 -0.0001414
-0.004093 -0.279 0.02478 -0.015495 -0.4167 0.1124 -1.214 -0.01185
-0.536 -1.913e-05 -0.02046 -0.1929 1.02 0.04462 0.248 -1.96e-05
-0.02138 -0.4768 0.03912 -0.09357 -0.05313 -0.0384 0.03114 1.618

arith.constant7 f2 [72, 1, 1, 16]
00000000: e82c b09d 322b 1da8 4c24 ad2b c8ad 1936
00000010: 2c2b d928 b5ab 7b1f a69b 8c25 29ac c4a8
00000020: 98a0 631e f622 33a8 1d20 7c23 9626 0a10
00000030: fd13 981b 55a1 d2b5 5d24 ada1 8ca4 818a
00000040: 4c2f 8eb7 7ab5 1438 66ad 8a38 8c2b e3a5
00000050: cf22 4892 4e19 d0a2 b939 64a9 7623 dd96
00000060: 90ac ff2b e5a9 45a5 e9a5 cc2a 8e27 fa26
00000070: e0a4 22a5 76a2 4c20 511b bf24 92a0 7b29
00000080: 1e22 e51b 1e04 109c 1f9c 401e 0c20 cb27
00000090: 720e 709b 041a 9a11 3d18 1595 90a0 651e
000000a0: 33a4 150d dd1c 6b98 059c 9d22 9ca0 b52c
000000b0: 5030 9a13 5e18 e918 b623 3aa1 7e9f 269d
000000c0: 9cad 121b bd27 46ac 79a4 9324 46b8 d41a
000000d0: d8a7 e79a 5624 8da1 3922 8129 7db8 aa11
000000e0: 1f29 20ac 5ead 892e bda4 5cac 002d deb6
000000f0: 4db9 44a6 7124 6ca2 3aaf 1d2a 592c 3c2a
00000100: 59a2 3821 4c24 56a0 6d25 389c d9aa 6726
00000110: de9d e6a1 43a3 89a8 c426 b7a8 f328 501d
00000120: c2aa 6732 d6a3 15b1 7226 39a0 f824 b3af
00000130: 3f26 33b0 60b3 a327 4233 5ea9 641f ee32
00000140: 7f28 28a4 b221 5f99 2ba4 729d 0927 0a2a
00000150: e818 631c 1d24 049f 9e18 3b95 0ca8 948e
00000160: 271e 10a5 ff23 5620 1913 cda4 e8a4 5baa
00000170: d01b 6e25 29a3 829a 909d 5222 c522 44a7
00000180: ea9b a2a0 c021 75a0 699e 56a0 982a 491e
00000190: 3498 5516 62a0 6620 6b1e b71f 61a9 e917
000001a0: cdb3 35a6 3f32 e9ad 0e37 e5b2 d29d df25
000001b0: f1a1 c91f 2fa4 7f24 11ac ec34 fc9a d1a0
000001c0: 6ca8 6e25 bba4 8a27 2aa5 cd28 c2b0 c29c
000001d0: d5a1 5618 3b1e 0fa0 6599 86a8 8c30 94a1
000001e0: 75ac 50b4 a336 43ab aab0 45b4 689d 9824
000001f0: 46a6 de9b 87a8 8f20 1531 1cad e628 0f26
0.07666 -0.005554 0.0562 -0.03214 0.01678 0.05997 -0.09033 0.381
0.05603 0.03787 -0.0602 0.007305 -0.003735 0.02167 -0.065 -0.03723
-0.00897 0.006237 0.013596 -0.0328 0.00803 0.01462 0.02573 0.000493
0.000975 0.003708 -0.010414 -0.3638 0.01704 -0.011086 -0.01776 -0.0001985
0.114 -0.4722 -0.3423 0.51 -0.08435 0.5674 0.05896 -0.023
0.0133 -0.0007668 0.00259 -0.013306 0.7153 -0.0421 0.01457 -0.001676
-0.0713 0.06247 -0.04605 -0.02058 -0.02309 0.0531 0.02951 0.02725
-0.01904 -0.02005 -0.01262 0.00839 0.003572 0.01854 -0.00893 0.04282
0.01195 0.003855 6.28e-05 -0.003967 -0.004025 0.006104 0.007904 0.03044
0.0003934 -0.003632 0.002937 0.000684 0.00207 -0.001241 -0.00891 0.006245
-0.0164 0.0003102 0.00475 -0.002157 -0.003925 0.01292 -0.009 0.07355
0.1348 0.000928 0.002132 0.002398 0.01506 -0.01021 -0.007317 -0.005028
-0.08765 0.003452 0.03023 -0.0668 -0.01747 0.01787 -0.534 0.003334
-0.03064 -0.00337 0.01694 -0.01084 0.01215 0.043 -0.561 0.0006914
0.04 -0.06445 -0.08386 0.1021 -0.01851 -0.0681 0.0781 -0.4292
-0.6626 -0.02448 0.01735 -0.01254 -0.1129 0.04776 0.06793 0.0487
-0.0124 0.01019 0.01678 -0.00847 0.0212 -0.00412 -0.0535 0.02501
-0.00573 -0.01152 -0.01418 -0.03543 0.02643 -0.03683 0.03867 0.005188
-0.0528 0.2001 -0.015305 -0.1588 0.02518 -0.00825 0.01941 -0.1203
0.0244 -0.1312 -0.2305 0.02983 0.2268 -0.04193 0.007217 0.2166
0.03513 -0.01624 0.01112 -0.002623 -0.01628 -0.005318 0.02748 0.04718
0.002396 0.004284 0.01607 -0.00685 0.002254 -0.001277 -0.03162 -0.0004015
0.00601 -0.01978 0.01562 0.00847 0.0008664 -0.01875 -0.01917 -0.04965
0.003815 0.02121 -0.013985 -0.003178 -0.005432 0.012344 0.01322 -0.02838
-0.003864 -0.00905 0.01123 -0.008705 -0.00626 -0.00847 0.0515 0.006138
-0.002052 0.001546 -0.00856 0.00859 0.006268 0.007534 -0.04202 0.001931
-0.2438 -0.02425 0.1952 -0.09235 0.441 -0.2155 -0.005684 0.02293
-0.011604 0.007603 -0.01634 0.01756 -0.06354 0.3076 -0.00341 -0.00941
-0.03455 0.02121 -0.01848 0.02945 -0.02017 0.0375 -0.1487 -0.004646
-0.01139 0.002117 0.006084 -0.00793 -0.002634 -0.03534 0.1421 -0.010895
-0.06964 -0.2695 0.4148 -0.05673 -0.1458 -0.2668 -0.00528 0.01794
-0.0245 -0.003841 -0.03537 0.0089 0.1588 -0.07983 0.03827 0.02367

arith.constant8 f2 [24, 1, 1, 72]
00000000: d830 6623 45b8 0829 b836 b031 44bc a028
00000010: 4c90 13b2 4f37 c638 86b8 1b29 f6b5 c430
00000020: c13a 861f 6624 bbb4 152f b234 4fa7 59b4
00000030: 6dac 5c38 d8b3 5ab4 8130 9832 3238 2c2c
00000040: eb2c e532 bdab 7db0 6828 2634 b72c 4630
00000050: 3b2a b42b 9134 adaf 1c29 a335 25b5 8838
00000060: 7e35 0db7 c5b0 4f37 1428 732d 07af 87ac
00000070: b42d c3b3 dbb8 ce34 ac32 0ab5 8736 2d2f
00000080: 4933 8b2f c539 d038 96b0 6bb2 90b7 60b0
00000090: 07b3 5438 8c29 0930 be23 8eaf 58ba c036
000000a0: 7db2 b8a1 1c2b 8624 5a2e dbaf 8c2d c42d
000000b0: 4fb2 f2a7 f2ac 522f 69b1 f3b0 042c f2a9
000000c0: 98a6 68b4 ee2d bb25 a5ad 9aa9 8429 baaf
000000d0: 5929 a218 5f26 4ca8 dd38 3bab 89a2 9e9b
000000e0: 58a8 9b2b 59ac dc2d c9b8 fbac fca8 7ca3
000000f0: 0eaa 222d ad2c 122c b59f afb7 4d2e b42a
00000100: 2da8 6d1c d59b 50ac d0b1 66a5 61b4 132b
00000110: c8b1 7eb9 e4b2 7a1f 1ea9 c52d c92b 822f
00000120: 5021 232b bf27 8324 8c30 4db0 7734 0034
00000130: 53b1 2132 1a32 d532 7c31 bfb0 e131 8ca4
00000140: 712b aba5 2938 762e a32c 4db2 a73b 1b35
00000150: cfb2 1630 bfb4 05b1 3cb7 842f 4a16 39af
00000160: 5f3a 973c ba1a 5e28 422e 5439 be2f ccb5
00000170: 592d 7834 19b7 bb2d 8ab2 962d 3db2 ec2f
00000180: c333 b32b b0b3 f632 83ae 78b3 2f30 1237
00000190: ebb6 5db5 5d27 273c bdb6 53b5 11b2 6928
000001a0: 35b1 59b5 f2a8 4932 72b2 ad34 dd20 4c31
000001b0: 9cbe 432e e034 1c38 b227 5c37 0b36 7bb9
000001c0: 4c34 f536 2e27 2b28 63b9 6338 8f36 e4b1
000001d0: 88ab bbb2 c3ab 3537 09c0 e534 be36 9cb8
000001e0: b632 fd35 17b5 e932 45b7 2730 c0b3 85b4
000001f0: a833 8bba f4ac 8da1 0a3f 842e 08ba e02f
0.1514 0.01445 -0.5337 0.0393 0.42 0.1777 -1.066 0.03613
-0.0005245 -0.1898 0.4568 0.5967 -0.5654 0.0399 -0.3726 0.1489
0.844 0.007347 0.01718 -0.2957 0.11066 0.2935 -0.02855 -0.2717
-0.06915 0.545 -0.2451 -0.272 0.1407 0.206 0.5244 0.0652
0.07684 0.2155 -0.06046 -0.1403 0.03442 0.2593 0.07367 0.1335
0.04868 0.06018 0.2854 -0.11993 0.03992 0.3523 -0.3215 0.5664
0.3433 -0.4407 -0.149 0.4568 0.03186 0.08514 -0.1098 -0.07074
0.0891 -0.2426 -0.607 0.3003 0.2085 -0.315 0.408 0.1121
0.2277 0.11786 0.721 0.6016 -0.1433 -0.2006 -0.4727 -0.1367
-0.2196 0.541 0.04333 0.1261 0.01512 -0.11804 -0.793 0.4219
-0.2028 -0.01117 0.05554 0.01767 0.09924 -0.12274 0.0867 0.0901
-0.1971 -0.03104 -0.0773 0.1144 -0.1691 -0.1547 0.06274 -0.04645
-0.02576 -0.2754 0.09265 0.02238 -0.0882 -0.04376 0.0431 -0.1207
0.04178 0.002262 0.02489 -0.03357 0.608 -0.0565 -0.012764 -0.00372
-0.03394 0.05942 -0.06793 0.09155 -0.598 -0.0778 -0.03894 -0.01462
-0.0473 0.0802 0.07306 0.0636 -0.007526 -0.4802 0.09845 0.05237
-0.03262 0.004322 -0.003824 -0.0674 -0.1816 -0.02109 -0.2737 0.05527
-0.1807 -0.6865 -0.2153 0.0073 -0.03998 0.09015 0.06082 0.1173
0.010376 0.05576 0.03026 0.01762 0.1421 -0.1344 0.279 0.25
-0.1664 0.1915 0.1907 0.2135 0.1714 -0.1483 0.1837 -0.01776
0.05814 -0.02214 0.52 0.10095 0.07245 -0.1969 0.9565 0.319
-0.2128 0.1277 -0.2966 -0.1569 -0.4521 0.11743 0.001535 -0.11285
0.7964 1.147 0.003284 0.03412 0.0978 0.666 0.121 -0.3623
0.08356 0.2793 -0.4436 0.08954 -0.2043 0.0873 -0.195 0.1238
0.2426 0.06015 -0.2402 0.2175 -0.10175 -0.2334 0.1307 0.442
-0.4324 -0.3352 0.02876 1.038 -0.4211 -0.3328 -0.1896 0.03445
-0.1627 -0.3342 -0.03864 0.1964 -0.2014 0.2922 0.0095 0.1655
-1.652 0.09784 0.3047 0.5137 0.03006 0.46 0.3777 -0.685
0.2686 0.4348 0.02805 0.03256 -0.6733 0.5483 0.41 -0.1841
-0.05884 -0.2103 -0.06064 0.4504 -2.018 0.306 0.4214 -0.576
0.2097 0.3743 -0.318 0.216 -0.4543 0.1298 -0.2422 -0.2825
0.2393 -0.818 -0.0774 -0.01084 1.76 0.1018 -0.754 0.12305

arith.constant9 f2 [88, 1, 1, 24]
00000000: 65ad b6a1 29b1 00a8 e734 cfa3 41b0 0db2
00000010: 46a4 682c 032c 00a7 9c21 f7ab ef23 cf32
00000020: 872a 9d32 0f2c 82af a92e f0a8 66a2 3d2c
00000030: 1696 c92a 19a3 23a9 ed25 81a5 042a bda9
00000040: 4ead 5e9f 32a8 0ea5 9f29 74a6 8a22 4ea4
00000050: 2d95 302a b8a9 8a28 96a3 4695 caa6 6ba3
00000060: b12c e4aa c3a1 e5ac 7fa0 292c 6e31 29ad
00000070: f42a 2d18 12ad 66b1 afb0 5726 7eae f229
00000080: 14a6 8ba8 bd2c a9b0 4a2a ebab e5ae 2cae
00000090: 1eb1 282b 3724 ab9a f2ac 701b 5f23 6ba8
000000a0: a0a8 d432 9427 83a2 cea8 d6ab fc9b 4037
000000b0: f2aa d8a4 c530 859c 48ad 2faa 3c2f 3ea9
000000c0: c49d c2a6 2028 02a9 179c 40b1 5229 8528
000000d0: 75aa f31d bd1f 2635 282e b524 11b4 30a4
000000e0: 99a6 3723 5d24 3ead a3ac 31a4 3418 422b
000000f0: 17b2 c52c 34aa 3024 6aa3 c9a6 3d28 0729
00000100: 2028 08b2 661f 362d 67ab 6d24 b92b eb28
00000110: dd34 4ba3 46a0 d9a9 4832 62ac e4a8 25ab
00000120: 3d25 a432 ebac 3231 ba27 5c9d 4b2b 5f26
00000130: d5ad 87a8 7cac 4c21 71a5 972d 2c25 761c
00000140: f426 db26 2c2c 999f c32b 7325 5529 2da5
00000150: 9634 87a8 8319 ad1d 8e25 e79c d52a e5a8
00000160: 0528 e5a3 c9a9 d326 4719 d2b1 4722 c826
00000170: 4930 b7a3 4ba9 2fa9 4828 fb84 6a36 1baa
00000180: 3528 9d31 132a 51b4 dea9 6c1c 7aa6 3c24
00000190: 5c29 45ab 6630 b524 f328 db2d 452c c599
000001a0: 2d1e 7f2a 1332 c420 d42d 88a7 652a ee2b
000001b0: 01b0 5130 1897 a9ac 65ad 261d deb0 34ac
000001c0: 9728 24ad a6b0 fa2a 8e9f 0422 6917 5031
000001d0: 8330 cf2c bdb0 93af 842d 0229 30af c227
000001e0: 381b 27a5 8ea0 f10f d71c 3c16 5911 c310
000001f0: 761c 330c 5520 bf1a 4793 c3a0 6813 6722
-0.0843 -0.011154 -0.1613 -0.03125 0.3064 -0.01525 -0.1329 -0.1891
-0.0167 0.06885 0.0627 -0.02734 0.010956 -0.06223 0.015495 0.2128
0.051 0.2067 0.0634 -0.1173 0.10406 -0.03857 -0.0125 0.0662
-0.001486 0.053 -0.01386 -0.04013 0.02315 -0.0215 0.047 -0.04483
-0.0829 -0.007195 -0.03278 -0.01974 0.0439 -0.0252 0.01277 -0.01682
-0.001264 0.04834 -0.04468 0.03546 -0.01482 -0.001287 -0.02652 -0.01449
0.0733 -0.05383 -0.01125 -0.0765 -0.00878 0.065 0.1697 -0.0806
0.05432 0.002039 -0.0792 -0.1687 -0.1464 0.02477 -0.10144 0.04645
-0.02374 -0.0355 0.07404 -0.1456 0.04913 -0.06186 -0.1077 -0.09644
-0.1599 0.0559 0.01646 -0.003256 -0.0773 0.003632 0.0144 -0.03452
-0.03613 0.2134 0.0296 -0.01272 -0.03754 -0.06122 -0.003899 0.4531
-0.05426 -0.01892 0.149 -0.004414 -0.0825 -0.0483 0.11304 -0.04095
-0.00563 -0.0264 0.03223 -0.03912 -0.003994 -0.1641 0.04156 0.0353
-0.05045 0.00581 0.007557 0.3218 0.0962 0.01839 -0.2542 -0.01636
-0.02577 0.01409 0.01704 -0.0819 -0.07245 -0.01637 0.002052 0.0567
-0.1903 0.0745 -0.04846 0.01636 -0.01448 -0.0265 0.0331 0.03928
0.03223 -0.1885 0.007225 0.0814 -0.05783 0.01729 0.06033 0.03842
0.304 -0.014244 -0.00835 -0.0457 0.1963 -0.0685 -0.0382 -0.05582
0.02046 0.2075 -0.07684 0.1624 0.03018 -0.005234 0.05698 0.02489
-0.0911 -0.03537 -0.07007 0.010345 -0.02126 0.08734 0.0202 0.004356
0.02716 0.02678 0.0652 -0.00742 0.06064 0.02129 0.04166 -0.02022
0.2866 -0.03537 0.002691 0.005543 0.0217 -0.004787 0.05338 -0.03824
0.0314 -0.01542 -0.0452 0.02666 0.002577 -0.1819 0.01226 0.02649
0.1339 -0.01507 -0.04135 -0.0405 0.03345 -7.6e-05 0.401 -0.0477
0.03287 0.1754 0.04745 -0.2698 -0.04584 0.00432 -0.0253 0.01654
0.04187 -0.0568 0.1375 0.01839 0.03867 0.0915 0.0667 -0.002817
0.00603 0.05075 0.1898 0.00931 0.09106 -0.02942 0.04996 0.06195
-0.1251 0.1349 -0.001732 -0.0728 -0.0843 0.005028 -0.1521 -0.0657
0.03586 -0.0803 -0.1453 0.0545 -0.007378 0.01175 0.001809 0.166
0.141 0.07513 -0.1481 -0.11835 0.0862 0.03912 -0.1123 0.0303
0.003525 -0.02013 -0.008896 0.0004847 0.004726 0.001522 0.000653 0.0005813
0.004356 0.0002563 0.00846 0.003294 -0.0008883 -0.0093 0.000904 0.012505

arith.constant10 f2 [24, 1, 1, 88]
00000000: 87ae 65a4 4d30 f438 a12d 00b5 aaaf 40bd
00000010: 1337 2dad c4a7 59ae 8434 5930 c636 be33
00000020: e02b 62b2 c6a1 0531 8fb9 1e34 313e ecad
00000030: a8b6 6fb3 1c37 2939 fcae c2b5 c6aa 3b2d
00000040: 5d34 f835 3737 e5b2 efad 03a5 4eb0 2531
00000050: 6bae bd2d d3b8 3fb1 6f38 e0bb b0b5 fba8
00000060: 8fa8 99ab 4dae 37b9 f6a6 4d9e f636 bd32
00000070: bdba d52c bdac aaad 8533 65ad 912f 1834
00000080: 5533 13ae d428 feb5 3f29 4a34 01ac 7cb5
00000090: 8c32 1428 c9b1 0a30 143e c034 7cb4 b92a
000000a0: d82e 0c2d 9b35 78b8 18b3 3a31 d1b5 4b30
000000b0: 0d9e a6b0 65ad 9434 b5a4 d92e 3f39 2736
000000c0: ab29 6934 df37 92a5 6823 3c2a 2bb3 eeac
000000d0: b634 dd30 c722 762a 89b0 02ad e838 f6b1
000000e0: 25b0 189d 4b35 c334 8232 ee2e 65ab cf2d
000000f0: 46b0 2cae 8da8 3133 e6bb c41d 43b5 8e2e
00000100: 282c 7bb5 3232 9ca8 6e3c 6b38 321c ee36
00000110: a339 e2b4 e2a2 9aaf dc35 5eb5 7c30 f7b3
00000120: e9b8 f4b3 8c27 cea2 f1b1 91b4 31b2 b2b1
00000130: 87b5 26a0 26b0 ff1e 0db2 30b1 cd2e 1f34
00000140: 11ad 5936 402e e5ad ca38 50b3 e2b0 b6b9
00000150: 5d30 2834 39b1 adb3 4434 c8aa 26a6 6aab
00000160: 9030 36b5 c7b6 11b5 d7bc 1525 9038 2eb5
00000170: 82b7 db2c a135 6435 a025 87b1 16ab 64ab
00000180: 6430 76ac 862d 1b33 ad34 62b3 39b1 9bb1
00000190: fbaf 34b2 95b4 3eb8 5fae 96b0 a82e fdb4
000001a0: b8b7 9128 04ad a6b4 6db4 d225 0db2 6ab6
000001b0: bf1c dcb4 a2a6 1eae 4835 88b6 53ae 17ac
000001c0: 6ead 5aaf 17b6 b2b5 b6a9 3ab4 d0b8 67ab
000001d0: e42d 0f33 4138 d52f 43b4 84b6 e937 8ab4
000001e0: adb7 24ae 7a36 7eac 34bc 6bb8 172d ef36
000001f0: b735 512c eb28 c5b8 17b2 2eb1 e3af ec38
-0.102 -0.01717 0.1344 0.619 0.08795 -0.3125 -0.11975 -1.3125
0.4421 -0.0809 -0.03033 -0.0992 0.2822 0.1359 0.4233 0.242
0.06152 -0.1995 -0.01128 0.1569 -0.695 0.2573 1.548 -0.0925
-0.416 -0.2323 0.4443 0.645 -0.10913 -0.3599 -0.05292 0.0817
0.2727 0.373 0.451 -0.2155 -0.0927 -0.01958 -0.1345 0.1608
-0.1003 0.08966 -0.603 -0.164 0.554 -0.9844 -0.3555 -0.0389
-0.0356 -0.05936 -0.09845 -0.652 -0.02719 -0.006153 0.435 0.2106
-0.8423 0.0755 -0.07404 -0.0885 0.235 -0.0843 0.1182 0.2559
0.2291 -0.0949 0.03772 -0.3745 0.041 0.268 -0.06256 -0.3428
0.2046 0.03186 -0.1808 0.1262 1.52 0.2969 -0.2803 0.05252
0.10693 0.07886 0.3503 -0.5586 -0.2217 0.1633 -0.3635 0.1342
-0.00591 -0.1453 -0.0843 0.2861 -0.01839 0.107 0.656 0.3845
0.04428 0.2756 0.492 -0.02176 0.014465 0.0487 -0.224 -0.077
0.2944 0.152 0.01324 0.05048 -0.1417 -0.07825 0.6133 -0.1863
-0.1295 -0.004974 0.3308 0.2976 0.2034 0.1083 -0.05777 0.09076
-0.1335 -0.09644 -0.03555 0.2247 -0.9873 0.00563 -0.3289 0.1024
0.06494 -0.3425 0.1936 -0.036 1.107 0.5522 0.004097 0.433
0.7046 -0.3052 -0.01344 -0.1188 0.3662 -0.3354 0.1401 -0.2489
-0.614 -0.2485 0.02948 -0.01329 -0.1857 -0.2854 -0.1935 -0.178
-0.3455 -0.0081 -0.1296 0.006832 -0.1891 -0.1621 0.10626 0.2576
-0.07916 0.3967 0.09766 -0.0921 0.5986 -0.2285 -0.1526 -0.714
0.1364 0.2598 -0.1632 -0.2399 0.2666 -0.05298 -0.02402 -0.05792
0.1426 -0.3257 -0.4236 -0.3167 -1.21 0.01985 0.5703 -0.3237
-0.4692 0.07587 0.3518 0.337 0.02197 -0.1727 -0.05536 -0.05774
0.1372 -0.0697 0.0863 0.222 0.2922 -0.2307 -0.1632 -0.1752
-0.1247 -0.1938 -0.2864 -0.5303 -0.09955 -0.1433 0.104 -0.3118
-0.4824 0.03568 -0.07837 -0.2905 -0.2766 0.02274 -0.1891 -0.401
0.004635 -0.3037 -0.02591 -0.0956 0.33 -0.4082 -0.0988 -0.0639
-0.08484 -0.11487 -0.3806 -0.356 -0.04462 -0.2642 -0.6016 -0.05783
0.09204 0.2206 0.5317 0.1224 -0.2664 -0.4072 0.4944 -0.2837
-0.4797 -0.09595 0.4048 -0.0702 -1.051 -0.5522 0.0795 0.4333
0.3572 0.06744 0.03842 -0.596 -0.1903 -0.1619 -0.1232 0.615

arith.constant11 f2 [96, 1, 1, 24]
00000000: 2c2d a333 911c 8226 1e29 4821 17a8 fa2d
00000010: 8b2a b2b0 7f23 7224 bda0 c72d 499d 9eb2
00000020: 27ac 7120 8923 e2a4 ea27 d028 f72a 9923
00000030: b89d 3827 b8ab 40b1 522c e926 04a9 4aad
00000040: 70ae 8eaa b027 fd27 35aa b1a8 832f 1129
00000050: cfad 55a9 d729 35a8 bba4 73a4 a71f 34aa
00000060: 1aaa 8124 c332 1528 3820 2bab 8530 c5a9
00000070: f4a4 c821 5f2d ce31 b82d f5a2 d42e eca3
00000080: 61a0 4227 00a4 60b4 2eac 601e 0caa dd2a
00000090: 1c1c 8c30 2ca8 4327 9bab 5622 eeac 302e
000000a0: 81a4 e6a7 1630 6a2d d31e d3a3 fc25 6c29
000000b0: d8b0 d42b dd1b 63a0 43af 4a29 8b27 c4aa
000000c0: b0ac ed18 032d 7c1e a9aa 71ad 1c2e a01f
000000d0: baa0 e8b1 da2d 4129 9d31 b9a9 c124 892e
000000e0: 18aa 3621 8615 26af ae2e eea9 24a6 d09c
000000f0: f223 11ae 682d 591f 4b27 86a4 1428 961e
00000100: 399f 86b0 3126 a12c 6a26 1831 8920 822f
00000110: 94ab ae1e 3da0 3ba9 b925 08a7 c91f d322
00000120: 5593 a320 9da1 2e14 7c08 07ac bc1d 869f
00000130: d81b 9ba4 1c90 c6a7 d829 2d17 e31e c91e
00000140: f5a0 241f 751b b095 eaa3 209d 8610 509f
00000150: 6220 7393 b7a7 3226 75ac f431 4e2c 2224
00000160: 3c99 d610 cfaa 4c23 ce2d 631d c820 03a8
00000170: 19ad f924 9d19 6aa7 db90 0628 a825 16ac
00000180: d2aa 65ae 32a0 5e21 fba4 109e c7a6 8fa5
00000190: 26a3 bfa5 bf9c 2b20 b220 619e 5fa0 39a9
000001a0: 7a28 73a3 0025 2aa4 b0a6 5a9d 1620 9f1f
000001b0: d4ac 4330 0b20 e0b0 3fa4 dfa8 39ab 36a0
000001c0: f1ab 96a8 29a8 ee27 6319 ab24 432a a7ab
000001d0: 2ca8 ee2c deb1 37a9 e727 d52c 1731 7ead
000001e0: 0825 2aa5 b5a7 9ca9 dea5 1ea8 3f29 8129
000001f0: 3ba5 3229 a3b0 6c29 8e20 d8a7 682d 8722
0.0808 0.2386 0.00446 0.02542 0.03998 0.010315 -0.03195 0.0934
0.05112 -0.1467 0.01464 0.01736 -0.009254 0.0903 -0.00516 -0.2068
-0.0649 0.008675 0.01472 -0.01907 0.03091 0.0376 0.0544 0.01484
-0.005585 0.0282 -0.0603 -0.1641 0.0675 0.027 -0.03918 -0.08264
-0.1006 -0.0512 0.03003 0.0312 -0.0485 -0.03665 0.1174 0.03958
-0.09076 -0.04166 0.04562 -0.03287 -0.01848 -0.01738 0.007473 -0.04846
-0.04767 0.0176 0.2113 0.0319 0.00824 -0.056 0.1412 -0.04507
-0.01935 0.01129 0.0839 0.1814 0.08936 -0.01359 0.1067 -0.01547
-0.00855 0.02835 -0.01563 -0.2734 -0.0653 0.006226 -0.04724 0.05362
0.004013 0.1421 -0.0326 0.02837 -0.05942 0.012375 -0.077 0.0967
-0.0176 -0.03085 0.1277 0.0846 0.006664 -0.01528 0.02338 0.04236
-0.1514 0.06116 0.00384 -0.00857 -0.11346 0.04132 0.02946 -0.05286
-0.07324 0.002405 0.0783 0.006332 -0.05203 -0.085 0.09546 0.007446
-0.00923 -0.1846 0.09143 0.04105 0.1754 -0.0447 0.01857 0.1021
-0.0476 0.01018 0.0013485 -0.1117 0.1044 -0.04633 -0.02399 -0.0047
0.01552 -0.0948 0.0845 0.007175 0.02849 -0.01767 0.03186 0.00643
-0.007053 -0.1414 0.02419 0.0723 0.02505 0.1592 0.00886 0.1173
-0.0592 0.006523 -0.00828 -0.04086 0.02235 -0.02747 0.007603 0.01333
-0.000895 0.009056 -0.01096 0.00102 0.0001369 -0.0629 0.0056 -0.007347
0.00383 -0.01799 -0.0005016 -0.03036 0.04565 0.001752 0.006725 0.006626
-0.00968 0.006973 0.003641 -0.001389 -0.01546 -0.005005 0.000552 -0.00714
0.00856 -0.0009093 -0.03014 0.0242 -0.06964 0.186 0.06726 0.01614
-0.002556 0.0005903 -0.0532 0.01425 0.0907 0.00526 0.00934 -0.03134
-0.07965 0.01942 0.00274 -0.02896 -0.0005927 0.03143 0.0221 -0.06384
-0.05328 -0.0999 -0.008194 0.01048 -0.01945 -0.00592 -0.02647 -0.02171
-0.01396 -0.02245 -0.004635 0.00814 0.00917 -0.00623 -0.00854 -0.0408
0.03497 -0.01455 0.01953 -0.01627 -0.02612 -0.005226 0.00798 0.007442
-0.07544 0.1332 0.0079 -0.1523 -0.01659 -0.03806 -0.05643 -0.008224
-0.06204 -0.03583 -0.0325 0.03098 0.00263 0.01823 0.04892 -0.05978
-0.0326 0.077 -0.1833 -0.04074 0.03087 0.0755 0.159 -0.0858
0.01965 -0.02017 -0.0301 -0.04382 -0.02292 -0.03217 0.041 0.043
-0.02043 0.0406 -0.1449 0.04236 0.008896 -0.03064 0.0845 0.01275

arith.constant12 f2 [40, 1, 1, 96]
00000000: e0b8 6931 2430 9329 7a22 242d 24a1 802c
00000010: 5ba4 362e 35b1 3324 c6ad 1920 c6af dcbb
00000020: aea0 18ad 7d25 d3b0 db2b 1ead 30b2 8a29
00000030: 28b6 3ea8 fbad a7ae e7a8 922d de31 a9a7
00000040: 1d2e 7d27 ce23 a526 abab 912c 18aa c7a4
00000050: 6a2c 0230 b8b0 b7ab 5a29 aeb2 26a2 ff2a
00000060: cba2 33b0 9ead 7729 122f 4dac f3b1 bca1
00000070: bfb0 b029 e52b 0424 1d28 9ea8 43a3 cf34
00000080: 0034 3631 2526 32ab 6fa4 6723 e42a 7b26
00000090: f720 4eac 1da6 cfac 41a9 2f34 79a8 f6a0
000000a0: 91aa 6231 9cba 14a4 55b4 2625 052b b5a4
000000b0: 73a0 b4a9 9ab3 ddb2 3fa5 b4a5 0e34 c5ae
000000c0: c325 68b9 9426 5f38 c928 2732 6b91 382a
000000d0: 4130 f130 ab30 352e ed31 35ab b535 58b4
000000e0: 9e2c 1bb7 c5b1 0030 0c30 d0af 0fa0 f9a5
000000f0: af29 a02d 22ae 092e 1db9 19b0 122b 9e28
00000100: a1b2 24a3 feac 18a6 582b d1ad afb4 55a7
00000110: 562b 08a8 ba2c 09a0 51b9 95b1 27a6 5eb5
00000120: aea5 962e 38af c72a 0f2e d52d 7024 802d
00000130: 803a c633 38a9 722e ec9f ceab f225 5b30
00000140: 14aa 2320 1322 df34 10a5 05b3 3636 a4b3
00000150: c1ae 612f 972d 9133 f623 8b29 c9ad d636
00000160: 38b3 b02e 0bb5 4022 36a9 ffaf 862d f226
00000170: 172e b73b 1233 9c22 8a26 2931 bc20 ecad
00000180: 3fad a3b1 40b9 c4b4 253b a6b8 fa26 f9b3
00000190: 3012 40b2 a834 1aa9 652c d731 f7b0 d62c
000001a0: 4eb2 b6b6 2538 9aad 37b7 9ab8 07a7 042d
000001b0: b637 b4a9 33ae a431 12a7 7438 1db3 3e34
000001c0: 5c35 3a38 23b7 0bad 9428 c51a 2ab5 8a23
000001d0: 94b5 e024 fc2f 08a8 b432 4a2d f12c 0a34
000001e0: f31d a53a 0fb8 92a5 0037 02af d432 70a5
000001f0: cbb0 caac 01b8 b7b1 90b1 84b2 87b0 c4a9
-0.6094 0.1691 0.1294 0.04355 0.01265 0.0803 -0.01004 0.0703
-0.01701 0.09705 -0.1627 0.0164 -0.0902 0.008 -0.12146 -0.9824
-0.00914 -0.0796 0.02144 -0.1508 0.06137 -0.07996 -0.1934 0.04327
-0.3848 -0.03314 -0.09344 -0.10394 -0.0383 0.08704 0.1833 -0.02992
0.0955 0.02925 0.01524 0.02596 -0.0599 0.07135 -0.0476 -0.01866
0.069 0.1252 -0.1475 -0.06027 0.0418 -0.2087 -0.01201 0.05466
-0.01327 -0.1312 -0.08777 0.0427 0.1105 -0.0672 -0.1859 -0.0112
-0.1483 0.04443 0.06168 0.01569 0.03214 -0.03607 -0.01418 0.3005
0.25 0.1628 0.024 -0.0562 -0.01732 0.01446 0.05383 0.02531
0.0097 -0.06726 -0.02388 -0.07513 -0.04105 0.2615 -0.03494 -0.00969
-0.0513 0.1682 -0.826 -0.01593 -0.2708 0.02011 0.05484 -0.01839
-0.00869 -0.04456 -0.2375 -0.2145 -0.0205 -0.02228 0.2534 -0.1058
0.0225 -0.676 0.0257 0.5464 0.03738 0.1923 -0.0006614 0.04858
0.1329 0.1544 0.1459 0.097 0.1852 -0.0563 0.3567 -0.2715
0.07214 -0.444 -0.1803 0.125 0.1265 -0.1221 -0.00793 -0.02333
0.0444 0.0879 -0.0958 0.0943 -0.639 -0.128 0.05524 0.03607
-0.2072 -0.01395 -0.078 -0.0238 0.05737 -0.0909 -0.2927 -0.02864
0.0573 -0.0315 0.07385 -0.00788 -0.6646 -0.1744 -0.02403 -0.3354
-0.02219 0.1029 -0.1128 0.05295 0.09467 0.0911 0.01733 0.08594
0.8125 0.2429 -0.04077 0.1007 -0.007736 -0.06097 0.02322 0.1361
-0.0475 0.00808 0.01186 0.3044 -0.01978 -0.2194 0.3882 -0.2388
-0.1055 0.1153 0.08734 0.2365 0.01555 0.0433 -0.0904 0.4272
-0.2256 0.1045 -0.3152 0.01221 -0.0407 -0.12494 0.0863 0.02713
0.09515 0.9644 0.221 0.01291 0.02554 0.1613 0.00925 -0.0925
-0.082 -0.1761 -0.6562 -0.2979 0.893 -0.581 0.02725 -0.2491
0.0007553 -0.1953 0.291 -0.03986 0.06866 0.1825 -0.1552 0.07556
-0.197 -0.4194 0.518 -0.0875 -0.451 -0.575 -0.02745 0.07837
0.482 -0.04456 -0.09686 0.1763 -0.02762 0.5566 -0.2223 0.2651
0.335 0.5283 -0.446 -0.0788 0.03577 0.003305 -0.3228 0.014725
-0.3486 0.01904 0.12476 -0.0315 0.2095 0.08264 0.0772 0.2524
0.00581 0.8306 -0.5073 -0.02176 0.4375 -0.1095 0.2134 -0.02124
-0.1498 -0.0748 -0.5005 -0.1786 -0.1738 -0.2036 -0.1415 -0.04504

arith.constant13 f2 [240, 1, 1, 40]
00000000: e8a5 a026 8697 8386 0a2a 8d99 801d 4fa8
00000010: 9ca2 d0a5 8e28 849e ef28 d295 3521 d02b
00000020: fb23 991b f3a0 dca4 2522 8818 77a6 88a3
00000030: 1ea8 6fa6 f99f 4422 df24 c7a4 0416 3928
00000040: 7a1d 77a5 cb1c 072a 0c2b 479a d4a8 eca0
00000050: a5a2 beac 40a2 0c21 492b 32a2 9fac ca9d
00000060: 2224 ac2c 4b27 d99a d49d f628 e120 bf8f
00000070: 88a1 afa5 e425 f125 cca0 e2ac 972d d326
00000080: 3f22 88ac d3a0 ec9d d022 8021 b0a8 87a0
00000090: 45a2 2026 871d 9f1c b1a7 f322 862d 3fa3
000000a0: 6ba4 44ab 52ae 7599 4c1d 78a4 e9ab beac
000000b0: 1d20 b427 1498 2b24 d9a9 64a6 14a6 42a7
000000c0: c72b b79a ce29 4317 a226 042d ac24 24aa
000000d0: 2925 ff2b 28a3 1725 f61b 959b e99e 981c
000000e0: a323 4829 d6a8 492d 48aa d7af 0220 7dac
000000f0: fe22 7f29 d4b0 4230 f1a8 99a9 9828 f1a9
00000100: fca3 902c 6d26 7fa4 0ea8 a12a 82ae f3a6
00000110: 4f28 36a1 2d0d 9e2b 2ba9 8131 802c f72a
00000120: 0daa 7e27 60ac e0ac 6bac a2af 56ab d19e
00000130: 12a4 a7aa 3da6 6db1 72b0 eeae e42f 9627
00000140: 3bae 09a8 d425 34a8 c3aa 13a5 eea0 fb99
00000150: 0390 2629 08ab 4da4 eda4 e9a5 4e25 be24
00000160: 7927 e72c b02b 4090 9024 3ea2 7da8 eb27
00000170: eb1d cf24 39a5 0d8a 7e2a 6a24 1720 bc29
00000180: 63a8 0198 c4a5 44a4 1824 44a0 6028 0924
00000190: a2a7 7d98 66ae d3b0 e28d 3f25 eb2c 41aa
000001a0: ad31 812c a8a2 1934 fdac 59b0 bd1c d7a9
000001b0: 30ac 039e 50a6 0cad caa9 3dac 802a 66a5
000001c0: 9ca9 b12e bbac fca6 7c2e 4f22 46a6 5c13
000001d0: d70d a22d 4a24 3fa9 0821 39aa f019 0a2f
000001e0: 45a7 5322 2c28 6d9e 349d 2b28 0da7 1da9
000001f0: eb9d d226 b3ab 69a4 08b4 6428 3c8d 5029
-0.02307 0.02588 -0.001837 -9.936e-05 0.04718 -0.00271 0.00537 -0.03366
-0.01291 -0.0227 0.03558 -0.006363 0.03854 -0.001421 0.01017 0.06104
0.01559 0.00371 -0.00967 -0.01898 0.012 0.002213 -0.02525 -0.01471
-0.03217 -0.02513 -0.007786 0.01224 0.01903 -0.01866 0.001469 0.033
0.00535 -0.02135 0.00468 0.0471 0.05505 -0.003065 -0.03772 -0.00961
-0.01298 -0.0741 -0.01221 0.00986 0.05692 -0.0121 -0.0722 -0.005653
0.01614 0.073 0.02849 -0.003344 -0.00569 0.03876 0.00953 -0.0004728
-0.0108 -0.0222 0.02301 0.02321 -0.00937 -0.0763 0.08734 0.02666
0.0122 -0.0708 -0.00942 -0.005783 0.013306 0.01074 -0.03662 -0.00884
-0.012245 0.02393 0.005398 0.004513 -0.03004 0.01357 0.0863 -0.01415
-0.01726 -0.05676 -0.09875 -0.002665 0.005173 -0.01746 -0.0618 -0.0741
0.00803 0.03009 -0.001991 0.01628 -0.0457 -0.02496 -0.02374 -0.02835
0.06076 -0.003279 0.04535 0.001773 0.02591 0.07837 0.01825 -0.04797
0.02016 0.06247 -0.01398 0.01988 0.003887 -0.003702 -0.00675 0.004486
0.014915 0.04126 -0.03778 0.0826 -0.04907 -0.1225 0.00783 -0.0701
0.01366 0.04294 -0.1509 0.133 -0.0386 -0.04373 0.0359 -0.04642
-0.015594 0.0713 0.0251 -0.01756 -0.03168 0.0518 -0.1017 -0.02715
0.03366 -0.01018 0.000316 0.0595 -0.04037 0.172 0.0703 0.0544
-0.04727 0.02927 -0.06836 -0.0762 -0.06903 -0.11926 -0.0573 -0.006657
-0.0159 -0.05197 -0.02437 -0.1696 -0.1389 -0.1083 0.1233 0.02963
-0.09735 -0.03152 0.02277 -0.03284 -0.05283 -0.01982 -0.00963 -0.00292
-0.0004897 0.04022 -0.05493 -0.0168 -0.01924 -0.02309 0.02072 0.01852
0.02919 0.0766 0.06006 -0.000519 0.01782 -0.01219 -0.03506 0.03093
0.00578 0.01878 -0.0204 -0.0001847 0.05072 0.01724 0.00799 0.0448
-0.03427 -0.001955 -0.02252 -0.01666 0.01599 -0.00833 0.03418 0.01576
-0.02982 -0.002192 -0.1 -0.1508 -0.000359 0.0205 0.07684 -0.04886
0.1774 0.0704 -0.013 0.256 -0.07794 -0.1359 0.004627 -0.04562
-0.0654 -0.00587 -0.02466 -0.07886 -0.04523 -0.0662 0.05078 -0.02109
-0.04382 0.10455 -0.0739 -0.02728 0.1013 0.01232 -0.0245 0.0008984
0.0003564 0.088 0.01675 -0.041 0.00983 -0.0486 0.0029 0.11
-0.0284 0.01235 0.0326 -0.006275 -0.00508 0.03256 -0.02754 -0.03995
-0.00578 0.02664 -0.06015 -0.01723 -0.252 0.0343 -0.0003195 0.0415

arith.constant14 f2 [40, 1, 1, 240]
00000000: 152a 3b93 5726 55ad 5131 2d24 f427 d7a8
00000010: a21e a733 b822 c6a8 97ab 90a4 0d29 39ab
00000020: 5021 699a a72e c7b2 19b6 722e 13ac b2a5
00000030: 122f 0000 ee97 a20e 7fa4 5d2b f81e 93ac
00000040: f3a8 61b0 daac bd29 bdae 3f2b b0ae 4e2c
00000050: 602d 3620 6332 7330 ddac 6da7 062a 402f
00000060: d6ac ce2c 622d ea31 292a 5a29 fe27 2929
00000070: c8a9 8729 3fa8 0a2e 292e ff30 54a4 b2b4
00000080: 582d 54a6 a52f b92d 842b 7824 fa25 1bb0
00000090: 7724 f9a9 11ac fd32 0ea3 d6a7 49ab d72b
000000a0: 42a5 1d2e 7325 1c2c 9bb1 d2a4 252b 11a5
000000b0: de2f 1426 eaa1 f82d 7da6 bf1c adae 7627
000000c0: 0cac e32c 6a20 3aa9 422d e121 31a2 89a9
000000d0: 142e 2020 572d 5fae 64a2 3da5 efa3 1eac
000000e0: 2bac 6fa3 0025 7faa be9c 26a7 c42a 9d2d
000000f0: e922 222c ca2b 0b25 6b20 ad33 022d d4ac
00000100: cc2d 90a4 29af 5aac fe2c 9733 ba31 a89a
00000110: 6e1c aaad 5627 94aa eeab 3898 032d ee2c
00000120: 0122 ff31 6e28 faa5 09a1 5330 2d28 192e
00000130: 4e2a a5a5 cc1c c02e f526 ab26 5135 7230
00000140: 862f a12d 6da9 0daa b726 9f28 bd25 872a
00000150: 692b 9f2c c5a7 d4ae c8b0 af2c 3d25 1f0b
00000160: c225 c8ad c42a 4e29 2127 282b e221 182a
00000170: 48b2 a4a6 1499 f7a9 a8ad 2324 6030 3d2d
00000180: 6a2d c02d dc30 fab0 aa2a 06b1 bf28 502e
00000190: 84aa fb27 25ac 72ac d625 09ad b929 512a
000001a0: a9b0 a2ac 3528 892d f827 7ba2 2a2c a29c
000001b0: 822c 8d31 b22b 4128 2532 0930 a932 862d
000001c0: 799d c225 3031 1da8 8619 9aaf 202d 5a25
000001d0: 8ba6 8b2b ce25 ea1b 1ca9 a0a8 d1ab ba32
000001e0: 0eae 5e2f b6a9 f6b1 712a 0b26 8331 e528
000001f0: 472d 6eaa 6da2 61a0 25af be34 f120 649d
0.04752 -0.0008826 0.02477 -0.0833 0.1661 0.01631 0.03107 -0.0378
0.006477 0.2391 0.01312 -0.0373 -0.0593 -0.01782 0.03946 -0.05643
0.010376 -0.00313 0.10394 -0.2118 -0.381 0.1007 -0.06366 -0.02225
0.1105 0.0 -0.001936 0.0004048 -0.01756 0.05753 0.006805 -0.0715
-0.03867 -0.1368 -0.0758 0.04483 -0.1053 0.0566 -0.1045 0.06726
0.084 0.008224 0.1996 0.139 -0.076 -0.029 0.04706 0.1133
-0.07556 0.0751 0.0841 0.1848 0.04813 0.0418 0.03122 0.0403
-0.04517 0.04318 -0.03317 0.09436 0.09625 0.1561 -0.0169 -0.2935
0.0835 -0.02472 0.11945 0.0894 0.05872 0.01746 0.02335 -0.1283
0.01744 -0.04666 -0.06354 0.2184 -0.01378 -0.03061 -0.05692 0.06125
-0.02054 0.0955 0.02129 0.0642 -0.1752 -0.01883 0.05582 -0.01979
0.1229 0.02374 -0.01155 0.09326 -0.02534 0.004635 -0.1043 0.02914
-0.06323 0.07635 0.00862 -0.04083 0.08215 0.01148 -0.01209 -0.04324
0.095 0.00806 0.08344 -0.09955 -0.01248 -0.02046 -0.015495 -0.06433
-0.0651 -0.01452 0.01953 -0.05075 -0.00463 -0.02792 0.05286 0.0877
0.0135 0.0646 0.06085 0.0197 0.00863 0.2399 0.07825 -0.07544
0.0906 -0.01782 -0.1119 -0.068 0.078 0.2372 0.179 -0.00325
0.004326 -0.0885 0.02866 -0.0514 -0.06195 -0.00206 0.0783 0.077
0.01173 0.1874 0.0346 -0.02335 -0.009834 0.1351 0.03262 0.0953
0.04926 -0.02205 0.004684 0.10547 0.02718 0.02605 0.3323 0.1389
0.11755 0.08795 -0.0424 -0.04727 0.02623 0.0361 0.02242 0.051
0.0579 0.0722 -0.03035 -0.1067 -0.1494 0.0732 0.02046 0.0002173
0.02249 -0.09033 0.05286 0.04144 0.02785 0.0559 0.01149 0.0476
-0.1963 -0.02594 -0.00248 -0.0466 -0.0884 0.01616 0.1367 0.08185
0.0846 0.08984 0.1519 -0.1555 0.05206 -0.157 0.03708 0.09863
-0.0509 0.03117 -0.06476 -0.06946 0.0228 -0.0787 0.0447 0.04935
-0.1456 -0.0724 0.03287 0.0865 0.03113 -0.01266 0.06506 -0.004524
0.07043 0.1735 0.06012 0.03323 0.192 0.1261 0.2081 0.0863
-0.005344 0.02249 0.1621 -0.03214 0.002697 -0.1188 0.0801 0.0209
-0.02556 0.05893 0.02267 0.003864 -0.03992 -0.03613 -0.06107 0.2102
-0.0946 0.1151 -0.04462 -0.1863 0.05032 0.0236 0.1722 0.03824
0.08246 -0.05023 -0.01255 -0.00855 -0.11163 0.2964 0.00965 -0.005264

arith.constant15 f2 [240, 1, 1, 40]
00000000: d0a1 f824 591d e1a4 309e 74a1 bd9f 4f23
00000010: baa8 ac8f 3828 581c ec25 c924 2910 b125
00000020: 1d9d 8aa4 a928 129d ba9a 0a18 98a1 c81d
00000030: 2120 f6a1 3f1f 8692 6f24 4da4 e0a2 9095
00000040: 4226 74a4 8620 70a7 eaa4 7ea5 cca4 631c
00000050: bda2 70a9 221f f81d c2a1 de0f b521 801c
00000060: e221 179d 0fa0 0d9e 99a8 e41e 289a 0199
00000070: 1ba3 d0a0 ab22 ea1a 1021 fa9f 9692 8d9c
00000080: cd95 0b24 2f1f 4023 121d 1d26 5424 0624
00000090: 5b9d 5f23 dca0 95a4 0aa4 d294 aa96 4ca9
000000a0: 112b 90a8 5e98 b327 6f25 c328 5520 6826
000000b0: 3a29 5f1a a9aa 9727 962f 3b91 2d22 fdaa
000000c0: 7ea8 8e94 5ca2 8021 f728 452a 562c 84a1
000000d0: b51e 7828 be2f bb98 8ea5 f425 8628 25a9
000000e0: 46a4 fda7 e425 dd21 0ca8 e824 b428 6aa2
000000f0: 1718 aa20 1baa 47a8 7d26 ddaa e92b ba1d
00000100: e199 ce15 05a0 4cae 0fab b223 0428 04a8
00000110: 7ea7 3f26 959c 8230 7cae be17 2d2b 3b27
00000120: 88a1 a429 7fa2 58b0 13a7 1b28 b424 d32a
00000130: fa29 f5b0 3aac 6e21 6bab 0f26 0b23 93ac
00000140: 1730 23a5 919b 1faa 65a0 3826 c51c b4a3
00000150: 17a8 d2a8 8fae 3ea9 c4b0 be28 11ad 7ea4
00000160: e925 4f9f 4f9e 91a8 2da9 42a9 6223 6f9d
00000170: b11a 92a9 0098 1429 4730 6c25 53a3 bf9a
00000180: 3c2b 25aa 10a3 b4a7 66a9 de99 4827 7129
00000190: 63ab de1d 349c 7329 cf2f f1a2 f120 5d20
000001a0: 938a 8619 de9d 1a1e 2ca5 d71f ef23 2029
000001b0: 3f24 dd1a 5099 c825 a419 2ca9 cba0 139f
000001c0: 8025 dc11 1aa0 4128 0822 b192 7c27 6027
000001d0: 939f 3720 1519 591c 2628 5125 0d28 c69b
000001e0: b3a5 f920 6b9e 3d12 94a6 291f 3623 1294
000001f0: 209e 6719 7421 20a5 7ea6 e911 f620 a3a5
-0.01135 0.01941 0.005222 -0.01906 -0.006042 -0.01065 -0.007557 0.014275
-0.03693 -0.0004683 0.03296 0.004242 0.02313 0.01869 0.000508 0.02223
-0.004993 -0.01773 0.0364 -0.00495 -0.003284 0.001972 -0.010925 0.005646
0.008064 -0.01164 0.007076 -0.0007963 0.01732 -0.0168 -0.01343 -0.001358
0.02444 -0.0174 0.008835 -0.02905 -0.0192 -0.02145 -0.01874 0.004284
-0.01316 -0.04248 0.006966 0.00583 -0.011246 0.0004802 0.01115 0.004395
0.01149 -0.00497 -0.00793 -0.00591 -0.03592 0.00673 -0.003006 -0.002443
-0.01388 -0.0094 0.01302 0.003376 0.00989 -0.00779 -0.000804 -0.004444
-0.001416 0.0158 0.007015 0.01416 0.00495 0.02388 0.0169 0.01572
-0.00523 0.0144 -0.00949 -0.0179 -0.01578 -0.001177 -0.001627 -0.04138
0.0552 -0.03564 -0.002132 0.03008 0.02122 0.0372 0.00846 0.02502
0.04083 0.00311 -0.05203 0.02965 0.1185 -0.0006385 0.01206 -0.0546
-0.0351 -0.001112 -0.01242 0.01074 0.0388 0.04898 0.06775 -0.01077
0.00655 0.0349 0.121 -0.00231 -0.0217 0.02325 0.03534 -0.0402
-0.0167 -0.0312 0.02301 0.01145 -0.03162 0.01917 0.03674 -0.01253
0.001997 0.00911 -0.0477 -0.03342 0.02534 -0.05362 0.0618 0.005592
-0.00287 0.001417 -0.00785 -0.0984 -0.05515 0.01503 0.03137 -0.03137
-0.02927 0.0244 -0.004475 0.1409 -0.1013 0.00189 0.05606 0.02824
-0.0108 0.04407 -0.01269 -0.1357 -0.02763 0.03207 0.01837 0.0533
0.0467 -0.1549 -0.06604 0.010605 -0.05795 0.02367 0.013756 -0.0715
0.1278 -0.02007 -0.003695 -0.04782 -0.00858 0.02429 0.004658 -0.015045
-0.03195 -0.03766 -0.1025 -0.04095 -0.1489 0.03705 -0.07916 -0.01755
0.02309 -0.007137 -0.00616 -0.03568 -0.04044 -0.04108 0.01442 -0.005306
0.003267 -0.04352 -0.001953 0.03967 0.1337 0.02118 -0.014305 -0.003294
0.05652 -0.048 -0.013794 -0.03009 -0.04218 -0.002865 0.02844 0.0425
-0.0577 0.00573 -0.004105 0.04257 0.122 -0.01356 0.00965 0.00852
-0.0002006 0.002697 -0.00573 0.00596 -0.0202 0.007656 0.015495 0.04004
0.01659 0.003351 -0.002594 0.02258 0.002754 -0.0404 -0.00936 -0.00691
0.02148 0.0007153 -0.00801 0.03323 0.01178 -0.000817 0.02924 0.02881
-0.007397 0.00823 0.002481 0.004246 0.0324 0.02077 0.03165 -0.003796
-0.02226 0.00971 -0.006268 0.0007615 -0.0257 0.006992 0.014084 -0.000994
-0.00598 0.002638 0.01065 -0.02002 -0.02536 0.0007215 0.00969 -0.02202

arith.constant16 f2 [40, 1, 1, 240]
00000000: 112a d331 72b3 b0a8 7631 42b0 b731 f0a0
00000010: 24ae 9aae 60b0 7530 ceaa e09a ce28 df2d
00000020: 8d2a 9123 bcb9 b6a9 012a bda1 f925 1dad
00000030: 8e2c cba3 42a8 23ab 46a0 822b b622 8125
00000040: 90ae e8ad 4f2c 8a31 d030 c829 adb1 c4b0
00000050: 7ead 1f33 51af b8ac 60a8 03a8 5330 38ae
00000060: 1a29 8da7 2caf 4d2d e7ad 15ae 9429 402c
00000070: ee2f 0caf e1aa a82e 9d2c 129b 21b6 7aa4
00000080: 5b22 f21e bd92 3727 1bab 41b8 09b2 e195
00000090: 84ae 13af 242a bab1 892c 8da8 b42f 96a8
000000a0: 93b0 3ead 22af faa7 51a8 4db3 dfa5 6e2d
000000b0: 22af 31a6 342e c129 392e 75b1 1cb0 3baa
000000c0: ba2c 11a6 8e2d 07a7 6e24 bc26 4722 3a12
000000d0: d62a b131 8a34 4831 f42f 9630 a5a6 03aa
000000e0: f4b4 baa0 7ca8 37ad 2134 27ae 08af 5ea8
000000f0: 32a9 a330 e831 86ad 0e33 e230 3cab a1b4
00000100: 35ad 8cad 6fb2 7c25 a7a0 6cac 86aa 91ab
00000110: 282c 40ac 78af 9ba5 1523 1b28 b3ad e033
00000120: 8027 5c24 7028 7ea0 082d 78a1 a12c e926
00000130: 0024 cb30 abb0 932c d09d 1cb4 20b3 d62c
00000140: 0fb2 42af 7826 c9ae 5136 c229 b9ad 6e36
00000150: e62a 83ac cca6 d4ab a5b3 482e 5532 4ca7
00000160: 492f 532b f82f e1a9 44a5 34af 8930 4a1e
00000170: 9898 e8b7 bb29 8929 76ad 461b 2130 63a9
00000180: 202f 75ae 2a30 fa36 992c 409a d9a4 3ba4
00000190: 2e28 952b bfa2 f992 4bac 0c36 5a2c f6a9
000001a0: 5529 d02b 8aae 00af 90b2 8b2d 2f2f 9c34
000001b0: e4b2 b5b1 89aa bd26 9ba5 9bac 38ac 30ba
000001c0: 9c29 bbaf fd9c 9f3a 3e2b d009 d81f eb2d
000001d0: 032a 69b1 5a2c 60b2 c990 2b2d 6239 e9a9
000001e0: 7821 f734 3d2f e52b 60b3 9231 e029 1e2d
000001f0: eb32 4c31 28ae 0831 b5b2 562f 442a 41b1
0.0474 0.182 -0.2327 -0.03662 0.1707 -0.133 0.1786 -0.00964
-0.09595 -0.10315 -0.1367 0.1393 -0.05316 -0.003357 0.03754 0.09174
0.05118 0.01478 -0.717 -0.04462 0.0469 -0.01121 0.02333 -0.0799
0.07117 -0.01522 -0.03326 -0.05576 -0.00835 0.05865 0.01311 0.0215
-0.10254 -0.0923 0.0673 0.1731 0.1504 0.04517 -0.1774 -0.1489
-0.0858 0.2225 -0.1143 -0.0737 -0.03418 -0.03134 0.1351 -0.09717
0.03986 -0.0295 -0.11206 0.0828 -0.0922 -0.09503 0.04358 0.0664
0.1239 -0.1101 -0.05374 0.104 0.0721 -0.003452 -0.383 -0.01749
0.01241 0.006783 -0.0008225 0.02818 -0.0555 -0.5317 -0.1886 -0.001435
-0.1018 -0.11053 0.04797 -0.179 0.07086 -0.03555 0.12036 -0.03583
-0.143 -0.0819 -0.11145 -0.03116 -0.03372 -0.2281 -0.02293 0.08484
-0.11145 -0.02419 0.0969 0.04495 0.0972 -0.1705 -0.1284 -0.04868
0.07385 -0.0237 0.0868 -0.02745 0.0173 0.0263 0.01226 0.00076
0.0534 0.1779 0.2837 0.165 0.12427 0.1433 -0.02596 -0.04697
-0.3096 -0.00923 -0.03503 -0.0815 0.258 -0.0961 -0.10986 -0.03412
-0.0406 0.1449 0.1846 -0.0863 0.2205 0.1526 -0.05652 -0.2893
-0.08136 -0.0867 -0.201 0.02142 -0.00909 -0.0691 -0.05096 -0.0591
0.06494 -0.0664 -0.1167 -0.0219 0.01383 0.03207 -0.08905 0.2461
0.0293 0.01703 0.03467 -0.00877 0.0786 -0.01068 0.0723 0.027
0.01563 0.1498 -0.1459 0.0715 -0.005676 -0.2568 -0.2227 0.07556
-0.1893 -0.1134 0.02527 -0.106 0.3948 0.04498 -0.0894 0.4019
0.0539 -0.0705 -0.02655 -0.06116 -0.2389 0.09814 0.1979 -0.0285
0.11383 0.05722 0.1245 -0.04593 -0.02057 -0.11255 0.1417 0.00614
-0.002243 -0.4941 0.04477 0.04324 -0.0853 0.003551 0.129 -0.04208
0.1113 -0.1009 0.1301 0.436 0.07184 -0.003052 -0.01894 -0.01653
0.03265 0.05923 -0.013176 -0.000851 -0.0671 0.378 0.068 -0.04657
0.04166 0.06104 -0.1022 -0.1094 -0.2051 0.0866 0.11224 0.288
-0.2153 -0.1783 -0.05106 0.02632 -0.0219 -0.07196 -0.0659 -0.7734
0.04382 -0.1208 -0.00487 0.8276 0.05658 0.0001774 0.00766 0.09247
0.04697 -0.1691 0.068 -0.1992 -0.000584 0.08075 0.673 -0.04617
0.01068 0.3103 0.1131 0.06168 -0.2305 0.1741 0.0459 0.07996
0.2162 0.1655 -0.0962 0.1572 -0.2096 0.1146 0.04895 -0.1642
